{"backend": "tensorflow", "config": {"input_layers": [["input_1", 0, 0]], "layers": [{"name": "input_1", "config": {"name": "input_1", "batch_input_shape": [null, 256, 256, 3], "dtype": "float32", "sparse": false}, "class_name": "InputLayer", "inbound_nodes": []}, {"name": "conv2d_1", "config": {"activation": "linear", "kernel_size": [4, 4], "bias_regularizer": null, "strides": [2, 2], "bias_initializer": {"config": {}, "class_name": "Zeros"}, "bias_constraint": null, "kernel_constraint": null, "activity_regularizer": null, "name": "conv2d_1", "data_format": "channels_last", "padding": "same", "dilation_rate": [1, 1], "trainable": true, "filters": 64, "use_bias": true, "kernel_regularizer": null, "kernel_initializer": {"config": {"mean": 0, "seed": null, "stddev": 0.02}, "class_name": "RandomNormal"}}, "class_name": "Conv2D", "inbound_nodes": [[["input_1", 0, 0, {}]]]}, {"name": "leaky_re_lu_1", "config": {"trainable": true, "name": "leaky_re_lu_1", "alpha": 0.20000000298023224}, "class_name": "LeakyReLU", "inbound_nodes": [[["conv2d_1", 0, 0, {}]]]}, {"name": "conv2d_2", "config": {"activation": "linear", "kernel_size": [4, 4], "bias_regularizer": null, "strides": [2, 2], "bias_initializer": {"config": {}, "class_name": "Zeros"}, "bias_constraint": null, "kernel_constraint": null, "activity_regularizer": null, "name": "conv2d_2", "data_format": "channels_last", "padding": "same", "dilation_rate": [1, 1], "trainable": true, "filters": 128, "use_bias": true, "kernel_regularizer": null, "kernel_initializer": {"config": {"mean": 0, "seed": null, "stddev": 0.02}, "class_name": "RandomNormal"}}, "class_name": "Conv2D", "inbound_nodes": [[["leaky_re_lu_1", 0, 0, {}]]]}, {"name": "batch_normalization_1", "config": {"moving_variance_initializer": {"config": {}, "class_name": "Ones"}, "axis": -1, "momentum": 0.9, "center": true, "gamma_regularizer": null, "moving_mean_initializer": {"config": {}, "class_name": "Zeros"}, "gamma_constraint": null, "epsilon": 1.01e-05, "gamma_initializer": {"config": {"mean": 1.0, "seed": null, "stddev": 0.02}, "class_name": "RandomNormal"}, "name": "batch_normalization_1", "beta_initializer": {"config": {}, "class_name": "Zeros"}, "beta_regularizer": null, "trainable": true, "beta_constraint": null, "scale": true}, "class_name": "BatchNormalization", "inbound_nodes": [[["conv2d_2", 0, 0, {}]]]}, {"name": "leaky_re_lu_2", "config": {"trainable": true, "name": "leaky_re_lu_2", "alpha": 0.20000000298023224}, "class_name": "LeakyReLU", "inbound_nodes": [[["batch_normalization_1", 0, 0, {}]]]}, {"name": "conv2d_3", "config": {"activation": "linear", "kernel_size": [4, 4], "bias_regularizer": null, "strides": [2, 2], "bias_initializer": {"config": {}, "class_name": "Zeros"}, "bias_constraint": null, "kernel_constraint": null, "activity_regularizer": null, "name": "conv2d_3", "data_format": "channels_last", "padding": "same", "dilation_rate": [1, 1], "trainable": true, "filters": 256, "use_bias": true, "kernel_regularizer": null, "kernel_initializer": {"config": {"mean": 0, "seed": null, "stddev": 0.02}, "class_name": "RandomNormal"}}, "class_name": "Conv2D", "inbound_nodes": [[["leaky_re_lu_2", 0, 0, {}]]]}, {"name": "batch_normalization_2", "config": {"moving_variance_initializer": {"config": {}, "class_name": "Ones"}, "axis": -1, "momentum": 0.9, "center": true, "gamma_regularizer": null, "moving_mean_initializer": {"config": {}, "class_name": "Zeros"}, "gamma_constraint": null, "epsilon": 1.01e-05, "gamma_initializer": {"config": {"mean": 1.0, "seed": null, "stddev": 0.02}, "class_name": "RandomNormal"}, "name": "batch_normalization_2", "beta_initializer": {"config": {}, "class_name": "Zeros"}, "beta_regularizer": null, "trainable": true, "beta_constraint": null, "scale": true}, "class_name": "BatchNormalization", "inbound_nodes": [[["conv2d_3", 0, 0, {}]]]}, {"name": "leaky_re_lu_3", "config": {"trainable": true, "name": "leaky_re_lu_3", "alpha": 0.20000000298023224}, "class_name": "LeakyReLU", "inbound_nodes": [[["batch_normalization_2", 0, 0, {}]]]}, {"name": "conv2d_4", "config": {"activation": "linear", "kernel_size": [4, 4], "bias_regularizer": null, "strides": [2, 2], "bias_initializer": {"config": {}, "class_name": "Zeros"}, "bias_constraint": null, "kernel_constraint": null, "activity_regularizer": null, "name": "conv2d_4", "data_format": "channels_last", "padding": "same", "dilation_rate": [1, 1], "trainable": true, "filters": 512, "use_bias": true, "kernel_regularizer": null, "kernel_initializer": {"config": {"mean": 0, "seed": null, "stddev": 0.02}, "class_name": "RandomNormal"}}, "class_name": "Conv2D", "inbound_nodes": [[["leaky_re_lu_3", 0, 0, {}]]]}, {"name": "batch_normalization_3", "config": {"moving_variance_initializer": {"config": {}, "class_name": "Ones"}, "axis": -1, "momentum": 0.9, "center": true, "gamma_regularizer": null, "moving_mean_initializer": {"config": {}, "class_name": "Zeros"}, "gamma_constraint": null, "epsilon": 1.01e-05, "gamma_initializer": {"config": {"mean": 1.0, "seed": null, "stddev": 0.02}, "class_name": "RandomNormal"}, "name": "batch_normalization_3", "beta_initializer": {"config": {}, "class_name": "Zeros"}, "beta_regularizer": null, "trainable": true, "beta_constraint": null, "scale": true}, "class_name": "BatchNormalization", "inbound_nodes": [[["conv2d_4", 0, 0, {}]]]}, {"name": "leaky_re_lu_4", "config": {"trainable": true, "name": "leaky_re_lu_4", "alpha": 0.20000000298023224}, "class_name": "LeakyReLU", "inbound_nodes": [[["batch_normalization_3", 0, 0, {}]]]}, {"name": "conv2d_5", "config": {"activation": "linear", "kernel_size": [4, 4], "bias_regularizer": null, "strides": [2, 2], "bias_initializer": {"config": {}, "class_name": "Zeros"}, "bias_constraint": null, "kernel_constraint": null, "activity_regularizer": null, "name": "conv2d_5", "data_format": "channels_last", "padding": "same", "dilation_rate": [1, 1], "trainable": true, "filters": 512, "use_bias": true, "kernel_regularizer": null, "kernel_initializer": {"config": {"mean": 0, "seed": null, "stddev": 0.02}, "class_name": "RandomNormal"}}, "class_name": "Conv2D", "inbound_nodes": [[["leaky_re_lu_4", 0, 0, {}]]]}, {"name": "batch_normalization_4", "config": {"moving_variance_initializer": {"config": {}, "class_name": "Ones"}, "axis": -1, "momentum": 0.9, "center": true, "gamma_regularizer": null, "moving_mean_initializer": {"config": {}, "class_name": "Zeros"}, "gamma_constraint": null, "epsilon": 1.01e-05, "gamma_initializer": {"config": {"mean": 1.0, "seed": null, "stddev": 0.02}, "class_name": "RandomNormal"}, "name": "batch_normalization_4", "beta_initializer": {"config": {}, "class_name": "Zeros"}, "beta_regularizer": null, "trainable": true, "beta_constraint": null, "scale": true}, "class_name": "BatchNormalization", "inbound_nodes": [[["conv2d_5", 0, 0, {}]]]}, {"name": "leaky_re_lu_5", "config": {"trainable": true, "name": "leaky_re_lu_5", "alpha": 0.20000000298023224}, "class_name": "LeakyReLU", "inbound_nodes": [[["batch_normalization_4", 0, 0, {}]]]}, {"name": "conv2d_6", "config": {"activation": "linear", "kernel_size": [4, 4], "bias_regularizer": null, "strides": [2, 2], "bias_initializer": {"config": {}, "class_name": "Zeros"}, "bias_constraint": null, "kernel_constraint": null, "activity_regularizer": null, "name": "conv2d_6", "data_format": "channels_last", "padding": "same", "dilation_rate": [1, 1], "trainable": true, "filters": 512, "use_bias": true, "kernel_regularizer": null, "kernel_initializer": {"config": {"mean": 0, "seed": null, "stddev": 0.02}, "class_name": "RandomNormal"}}, "class_name": "Conv2D", "inbound_nodes": [[["leaky_re_lu_5", 0, 0, {}]]]}, {"name": "batch_normalization_5", "config": {"moving_variance_initializer": {"config": {}, "class_name": "Ones"}, "axis": -1, "momentum": 0.9, "center": true, "gamma_regularizer": null, "moving_mean_initializer": {"config": {}, "class_name": "Zeros"}, "gamma_constraint": null, "epsilon": 1.01e-05, "gamma_initializer": {"config": {"mean": 1.0, "seed": null, "stddev": 0.02}, "class_name": "RandomNormal"}, "name": "batch_normalization_5", "beta_initializer": {"config": {}, "class_name": "Zeros"}, "beta_regularizer": null, "trainable": true, "beta_constraint": null, "scale": true}, "class_name": "BatchNormalization", "inbound_nodes": [[["conv2d_6", 0, 0, {}]]]}, {"name": "leaky_re_lu_6", "config": {"trainable": true, "name": "leaky_re_lu_6", "alpha": 0.20000000298023224}, "class_name": "LeakyReLU", "inbound_nodes": [[["batch_normalization_5", 0, 0, {}]]]}, {"name": "conv2d_7", "config": {"activation": "linear", "kernel_size": [4, 4], "bias_regularizer": null, "strides": [2, 2], "bias_initializer": {"config": {}, "class_name": "Zeros"}, "bias_constraint": null, "kernel_constraint": null, "activity_regularizer": null, "name": "conv2d_7", "data_format": "channels_last", "padding": "same", "dilation_rate": [1, 1], "trainable": true, "filters": 512, "use_bias": true, "kernel_regularizer": null, "kernel_initializer": {"config": {"mean": 0, "seed": null, "stddev": 0.02}, "class_name": "RandomNormal"}}, "class_name": "Conv2D", "inbound_nodes": [[["leaky_re_lu_6", 0, 0, {}]]]}, {"name": "batch_normalization_6", "config": {"moving_variance_initializer": {"config": {}, "class_name": "Ones"}, "axis": -1, "momentum": 0.9, "center": true, "gamma_regularizer": null, "moving_mean_initializer": {"config": {}, "class_name": "Zeros"}, "gamma_constraint": null, "epsilon": 1.01e-05, "gamma_initializer": {"config": {"mean": 1.0, "seed": null, "stddev": 0.02}, "class_name": "RandomNormal"}, "name": "batch_normalization_6", "beta_initializer": {"config": {}, "class_name": "Zeros"}, "beta_regularizer": null, "trainable": true, "beta_constraint": null, "scale": true}, "class_name": "BatchNormalization", "inbound_nodes": [[["conv2d_7", 0, 0, {}]]]}, {"name": "leaky_re_lu_7", "config": {"trainable": true, "name": "leaky_re_lu_7", "alpha": 0.20000000298023224}, "class_name": "LeakyReLU", "inbound_nodes": [[["batch_normalization_6", 0, 0, {}]]]}, {"name": "conv2d_8", "config": {"activation": "linear", "kernel_size": [4, 4], "bias_regularizer": null, "strides": [2, 2], "bias_initializer": {"config": {}, "class_name": "Zeros"}, "bias_constraint": null, "kernel_constraint": null, "activity_regularizer": null, "name": "conv2d_8", "data_format": "channels_last", "padding": "same", "dilation_rate": [1, 1], "trainable": true, "filters": 512, "use_bias": true, "kernel_regularizer": null, "kernel_initializer": {"config": {"mean": 0, "seed": null, "stddev": 0.02}, "class_name": "RandomNormal"}}, "class_name": "Conv2D", "inbound_nodes": [[["leaky_re_lu_7", 0, 0, {}]]]}, {"name": "activation_1", "config": {"trainable": true, "name": "activation_1", "activation": "relu"}, "class_name": "Activation", "inbound_nodes": [[["conv2d_8", 0, 0, {}]]]}, {"name": "conv2d_transpose_1", "config": {"activation": "linear", "kernel_size": [4, 4], "bias_regularizer": null, "strides": [2, 2], "bias_initializer": {"config": {}, "class_name": "Zeros"}, "bias_constraint": null, "kernel_constraint": null, "activity_regularizer": null, "name": "conv2d_transpose_1", "data_format": "channels_last", "padding": "same", "trainable": true, "filters": 512, "use_bias": true, "kernel_regularizer": null, "kernel_initializer": {"config": {"mean": 0, "seed": null, "stddev": 0.02}, "class_name": "RandomNormal"}}, "class_name": "Conv2DTranspose", "inbound_nodes": [[["activation_1", 0, 0, {}]]]}, {"name": "batch_normalization_7", "config": {"moving_variance_initializer": {"config": {}, "class_name": "Ones"}, "axis": -1, "momentum": 0.9, "center": true, "gamma_regularizer": null, "moving_mean_initializer": {"config": {}, "class_name": "Zeros"}, "gamma_constraint": null, "epsilon": 1.01e-05, "gamma_initializer": {"config": {"mean": 1.0, "seed": null, "stddev": 0.02}, "class_name": "RandomNormal"}, "name": "batch_normalization_7", "beta_initializer": {"config": {}, "class_name": "Zeros"}, "beta_regularizer": null, "trainable": true, "beta_constraint": null, "scale": true}, "class_name": "BatchNormalization", "inbound_nodes": [[["conv2d_transpose_1", 0, 0, {}]]]}, {"name": "dropout_1", "config": {"trainable": true, "name": "dropout_1", "noise_shape": null, "seed": null, "rate": 0.5}, "class_name": "Dropout", "inbound_nodes": [[["batch_normalization_7", 0, 0, {}]]]}, {"name": "concatenate_1", "config": {"trainable": true, "name": "concatenate_1", "axis": -1}, "class_name": "Concatenate", "inbound_nodes": [[["dropout_1", 0, 0, {}], ["batch_normalization_6", 0, 0, {}]]]}, {"name": "activation_2", "config": {"trainable": true, "name": "activation_2", "activation": "relu"}, "class_name": "Activation", "inbound_nodes": [[["concatenate_1", 0, 0, {}]]]}, {"name": "conv2d_transpose_2", "config": {"activation": "linear", "kernel_size": [4, 4], "bias_regularizer": null, "strides": [2, 2], "bias_initializer": {"config": {}, "class_name": "Zeros"}, "bias_constraint": null, "kernel_constraint": null, "activity_regularizer": null, "name": "conv2d_transpose_2", "data_format": "channels_last", "padding": "same", "trainable": true, "filters": 512, "use_bias": true, "kernel_regularizer": null, "kernel_initializer": {"config": {"mean": 0, "seed": null, "stddev": 0.02}, "class_name": "RandomNormal"}}, "class_name": "Conv2DTranspose", "inbound_nodes": [[["activation_2", 0, 0, {}]]]}, {"name": "batch_normalization_8", "config": {"moving_variance_initializer": {"config": {}, "class_name": "Ones"}, "axis": -1, "momentum": 0.9, "center": true, "gamma_regularizer": null, "moving_mean_initializer": {"config": {}, "class_name": "Zeros"}, "gamma_constraint": null, "epsilon": 1.01e-05, "gamma_initializer": {"config": {"mean": 1.0, "seed": null, "stddev": 0.02}, "class_name": "RandomNormal"}, "name": "batch_normalization_8", "beta_initializer": {"config": {}, "class_name": "Zeros"}, "beta_regularizer": null, "trainable": true, "beta_constraint": null, "scale": true}, "class_name": "BatchNormalization", "inbound_nodes": [[["conv2d_transpose_2", 0, 0, {}]]]}, {"name": "dropout_2", "config": {"trainable": true, "name": "dropout_2", "noise_shape": null, "seed": null, "rate": 0.5}, "class_name": "Dropout", "inbound_nodes": [[["batch_normalization_8", 0, 0, {}]]]}, {"name": "concatenate_2", "config": {"trainable": true, "name": "concatenate_2", "axis": -1}, "class_name": "Concatenate", "inbound_nodes": [[["dropout_2", 0, 0, {}], ["batch_normalization_5", 0, 0, {}]]]}, {"name": "activation_3", "config": {"trainable": true, "name": "activation_3", "activation": "relu"}, "class_name": "Activation", "inbound_nodes": [[["concatenate_2", 0, 0, {}]]]}, {"name": "conv2d_transpose_3", "config": {"activation": "linear", "kernel_size": [4, 4], "bias_regularizer": null, "strides": [2, 2], "bias_initializer": {"config": {}, "class_name": "Zeros"}, "bias_constraint": null, "kernel_constraint": null, "activity_regularizer": null, "name": "conv2d_transpose_3", "data_format": "channels_last", "padding": "same", "trainable": true, "filters": 512, "use_bias": true, "kernel_regularizer": null, "kernel_initializer": {"config": {"mean": 0, "seed": null, "stddev": 0.02}, "class_name": "RandomNormal"}}, "class_name": "Conv2DTranspose", "inbound_nodes": [[["activation_3", 0, 0, {}]]]}, {"name": "batch_normalization_9", "config": {"moving_variance_initializer": {"config": {}, "class_name": "Ones"}, "axis": -1, "momentum": 0.9, "center": true, "gamma_regularizer": null, "moving_mean_initializer": {"config": {}, "class_name": "Zeros"}, "gamma_constraint": null, "epsilon": 1.01e-05, "gamma_initializer": {"config": {"mean": 1.0, "seed": null, "stddev": 0.02}, "class_name": "RandomNormal"}, "name": "batch_normalization_9", "beta_initializer": {"config": {}, "class_name": "Zeros"}, "beta_regularizer": null, "trainable": true, "beta_constraint": null, "scale": true}, "class_name": "BatchNormalization", "inbound_nodes": [[["conv2d_transpose_3", 0, 0, {}]]]}, {"name": "dropout_3", "config": {"trainable": true, "name": "dropout_3", "noise_shape": null, "seed": null, "rate": 0.5}, "class_name": "Dropout", "inbound_nodes": [[["batch_normalization_9", 0, 0, {}]]]}, {"name": "concatenate_3", "config": {"trainable": true, "name": "concatenate_3", "axis": -1}, "class_name": "Concatenate", "inbound_nodes": [[["dropout_3", 0, 0, {}], ["batch_normalization_4", 0, 0, {}]]]}, {"name": "activation_4", "config": {"trainable": true, "name": "activation_4", "activation": "relu"}, "class_name": "Activation", "inbound_nodes": [[["concatenate_3", 0, 0, {}]]]}, {"name": "conv2d_transpose_4", "config": {"activation": "linear", "kernel_size": [4, 4], "bias_regularizer": null, "strides": [2, 2], "bias_initializer": {"config": {}, "class_name": "Zeros"}, "bias_constraint": null, "kernel_constraint": null, "activity_regularizer": null, "name": "conv2d_transpose_4", "data_format": "channels_last", "padding": "same", "trainable": true, "filters": 512, "use_bias": true, "kernel_regularizer": null, "kernel_initializer": {"config": {"mean": 0, "seed": null, "stddev": 0.02}, "class_name": "RandomNormal"}}, "class_name": "Conv2DTranspose", "inbound_nodes": [[["activation_4", 0, 0, {}]]]}, {"name": "batch_normalization_10", "config": {"moving_variance_initializer": {"config": {}, "class_name": "Ones"}, "axis": -1, "momentum": 0.9, "center": true, "gamma_regularizer": null, "moving_mean_initializer": {"config": {}, "class_name": "Zeros"}, "gamma_constraint": null, "epsilon": 1.01e-05, "gamma_initializer": {"config": {"mean": 1.0, "seed": null, "stddev": 0.02}, "class_name": "RandomNormal"}, "name": "batch_normalization_10", "beta_initializer": {"config": {}, "class_name": "Zeros"}, "beta_regularizer": null, "trainable": true, "beta_constraint": null, "scale": true}, "class_name": "BatchNormalization", "inbound_nodes": [[["conv2d_transpose_4", 0, 0, {}]]]}, {"name": "concatenate_4", "config": {"trainable": true, "name": "concatenate_4", "axis": -1}, "class_name": "Concatenate", "inbound_nodes": [[["batch_normalization_10", 0, 0, {}], ["batch_normalization_3", 0, 0, {}]]]}, {"name": "activation_5", "config": {"trainable": true, "name": "activation_5", "activation": "relu"}, "class_name": "Activation", "inbound_nodes": [[["concatenate_4", 0, 0, {}]]]}, {"name": "conv2d_transpose_5", "config": {"activation": "linear", "kernel_size": [4, 4], "bias_regularizer": null, "strides": [2, 2], "bias_initializer": {"config": {}, "class_name": "Zeros"}, "bias_constraint": null, "kernel_constraint": null, "activity_regularizer": null, "name": "conv2d_transpose_5", "data_format": "channels_last", "padding": "same", "trainable": true, "filters": 256, "use_bias": true, "kernel_regularizer": null, "kernel_initializer": {"config": {"mean": 0, "seed": null, "stddev": 0.02}, "class_name": "RandomNormal"}}, "class_name": "Conv2DTranspose", "inbound_nodes": [[["activation_5", 0, 0, {}]]]}, {"name": "batch_normalization_11", "config": {"moving_variance_initializer": {"config": {}, "class_name": "Ones"}, "axis": -1, "momentum": 0.9, "center": true, "gamma_regularizer": null, "moving_mean_initializer": {"config": {}, "class_name": "Zeros"}, "gamma_constraint": null, "epsilon": 1.01e-05, "gamma_initializer": {"config": {"mean": 1.0, "seed": null, "stddev": 0.02}, "class_name": "RandomNormal"}, "name": "batch_normalization_11", "beta_initializer": {"config": {}, "class_name": "Zeros"}, "beta_regularizer": null, "trainable": true, "beta_constraint": null, "scale": true}, "class_name": "BatchNormalization", "inbound_nodes": [[["conv2d_transpose_5", 0, 0, {}]]]}, {"name": "concatenate_5", "config": {"trainable": true, "name": "concatenate_5", "axis": -1}, "class_name": "Concatenate", "inbound_nodes": [[["batch_normalization_11", 0, 0, {}], ["batch_normalization_2", 0, 0, {}]]]}, {"name": "activation_6", "config": {"trainable": true, "name": "activation_6", "activation": "relu"}, "class_name": "Activation", "inbound_nodes": [[["concatenate_5", 0, 0, {}]]]}, {"name": "conv2d_transpose_6", "config": {"activation": "linear", "kernel_size": [4, 4], "bias_regularizer": null, "strides": [2, 2], "bias_initializer": {"config": {}, "class_name": "Zeros"}, "bias_constraint": null, "kernel_constraint": null, "activity_regularizer": null, "name": "conv2d_transpose_6", "data_format": "channels_last", "padding": "same", "trainable": true, "filters": 128, "use_bias": true, "kernel_regularizer": null, "kernel_initializer": {"config": {"mean": 0, "seed": null, "stddev": 0.02}, "class_name": "RandomNormal"}}, "class_name": "Conv2DTranspose", "inbound_nodes": [[["activation_6", 0, 0, {}]]]}, {"name": "batch_normalization_12", "config": {"moving_variance_initializer": {"config": {}, "class_name": "Ones"}, "axis": -1, "momentum": 0.9, "center": true, "gamma_regularizer": null, "moving_mean_initializer": {"config": {}, "class_name": "Zeros"}, "gamma_constraint": null, "epsilon": 1.01e-05, "gamma_initializer": {"config": {"mean": 1.0, "seed": null, "stddev": 0.02}, "class_name": "RandomNormal"}, "name": "batch_normalization_12", "beta_initializer": {"config": {}, "class_name": "Zeros"}, "beta_regularizer": null, "trainable": true, "beta_constraint": null, "scale": true}, "class_name": "BatchNormalization", "inbound_nodes": [[["conv2d_transpose_6", 0, 0, {}]]]}, {"name": "concatenate_6", "config": {"trainable": true, "name": "concatenate_6", "axis": -1}, "class_name": "Concatenate", "inbound_nodes": [[["batch_normalization_12", 0, 0, {}], ["batch_normalization_1", 0, 0, {}]]]}, {"name": "activation_7", "config": {"trainable": true, "name": "activation_7", "activation": "relu"}, "class_name": "Activation", "inbound_nodes": [[["concatenate_6", 0, 0, {}]]]}, {"name": "conv2d_transpose_7", "config": {"activation": "linear", "kernel_size": [4, 4], "bias_regularizer": null, "strides": [2, 2], "bias_initializer": {"config": {}, "class_name": "Zeros"}, "bias_constraint": null, "kernel_constraint": null, "activity_regularizer": null, "name": "conv2d_transpose_7", "data_format": "channels_last", "padding": "same", "trainable": true, "filters": 64, "use_bias": true, "kernel_regularizer": null, "kernel_initializer": {"config": {"mean": 0, "seed": null, "stddev": 0.02}, "class_name": "RandomNormal"}}, "class_name": "Conv2DTranspose", "inbound_nodes": [[["activation_7", 0, 0, {}]]]}, {"name": "batch_normalization_13", "config": {"moving_variance_initializer": {"config": {}, "class_name": "Ones"}, "axis": -1, "momentum": 0.9, "center": true, "gamma_regularizer": null, "moving_mean_initializer": {"config": {}, "class_name": "Zeros"}, "gamma_constraint": null, "epsilon": 1.01e-05, "gamma_initializer": {"config": {"mean": 1.0, "seed": null, "stddev": 0.02}, "class_name": "RandomNormal"}, "name": "batch_normalization_13", "beta_initializer": {"config": {}, "class_name": "Zeros"}, "beta_regularizer": null, "trainable": true, "beta_constraint": null, "scale": true}, "class_name": "BatchNormalization", "inbound_nodes": [[["conv2d_transpose_7", 0, 0, {}]]]}, {"name": "concatenate_7", "config": {"trainable": true, "name": "concatenate_7", "axis": -1}, "class_name": "Concatenate", "inbound_nodes": [[["batch_normalization_13", 0, 0, {}], ["conv2d_1", 0, 0, {}]]]}, {"name": "activation_8", "config": {"trainable": true, "name": "activation_8", "activation": "relu"}, "class_name": "Activation", "inbound_nodes": [[["concatenate_7", 0, 0, {}]]]}, {"name": "conv2d_transpose_8", "config": {"activation": "linear", "kernel_size": [4, 4], "bias_regularizer": null, "strides": [2, 2], "bias_initializer": {"config": {}, "class_name": "Zeros"}, "bias_constraint": null, "kernel_constraint": null, "activity_regularizer": null, "name": "conv2d_transpose_8", "data_format": "channels_last", "padding": "same", "trainable": true, "filters": 1, "use_bias": true, "kernel_regularizer": null, "kernel_initializer": {"config": {"mean": 0, "seed": null, "stddev": 0.02}, "class_name": "RandomNormal"}}, "class_name": "Conv2DTranspose", "inbound_nodes": [[["activation_8", 0, 0, {}]]]}, {"name": "activation_9", "config": {"trainable": true, "name": "activation_9", "activation": "tanh"}, "class_name": "Activation", "inbound_nodes": [[["conv2d_transpose_8", 0, 0, {}]]]}], "output_layers": [["activation_9", 0, 0]], "name": "model_1"}, "class_name": "Model", "keras_version": "2.1.5"}